lr6_(TFLite)/model.tflite (tflite, 259728 bytes, 8 tensors)

sequential/dense_1/MatMul f4 [10, 64]
00000000: ede9 20be 5938 0b3e 5385 84be bab8 763e
00000010: fd46 fe3d 8d8c 80bd cf82 3a3e 9559 123c
00000020: 099c 85be 235a 7dbc ca0a 803e 046c 1abe
00000030: 419c d4bd 1b7f 93be d14f 843e ed93 2c3e
00000040: 3e92 72bd 9c49 2ebe 0530 7a3e 7e63 873e
00000050: 45b6 cc3d 4fd2 483e 8851 8bbe 4d14 bebe
00000060: 4569 af3d 3dc6 53be 80e2 6cbe ebc5 96be
00000070: b542 7d3e 8f8a b6be 5cb4 28bd c0a8 c1bd
00000080: f57a d63d f6c8 9abc a0cf d5bd fa3e 923e
00000090: 055e 3bbd c453 bc3d 638b ae3e 34aa 653d
000000a0: 615f 9bbe ce66 beba 49b5 523e d796 6e3e
000000b0: ca79 743e 1cf1 e9bd fa85 90bc 7992 aa3d
000000c0: c614 f9bd e33c 8b3e e447 cc3d 937a e5bd
000000d0: 1ec1 683e 8f46 66be 46f2 e23d 5cfe 653e
000000e0: 7fdb 88bd cc32 34bc f127 8ebe bd13 053e
000000f0: b368 88bd bd09 3abd dd09 1a3e aabb 19be
00000100: ed39 2cbe 4db8 a93d f3ed 533e 6751 f83d
00000110: d906 acbd e5e4 9f3e 4bfd acbe 3239 c9bd
00000120: 1fb9 163d e6a9 593e 7501 4d3e 58e4 d5bd
00000130: 3f97 7abe 707d 8fbe 06d5 96b8 b05a c0bd
00000140: f7c5 33bb ae31 eebd 4e60 adbd a773 9f3e
00000150: 985c dfbc 01f9 2ebe 5cfc 64be bb24 c43d
00000160: 570d d23e 77ca 6b3e a0bb d73c 5fa4 233e
00000170: 89f2 23bc 2431 68be c982 d73d e660 ddbe
00000180: 493d 5dbc 0643 393e d4ee f3bd e6e4 3c3d
00000190: 8b3b a43e 3565 90be 0be7 98be b108 a2be
000001a0: 2c65 e4bd bf76 b0be 3203 a33e ec77 27be
000001b0: 921f 1b3e 57ca a43d 8aa2 4ebe 28a6 dc3d
000001c0: f66e 74be 29dc 6abe 6247 363e 0c84 aabd
000001d0: 4170 bcbe 09b0 703e 0300 d0be 8090 fabe
000001e0: 15b1 40be 41d4 8abe a83e 9c3e 08e7 723e
000001f0: 9cf8 083e 4b43 aabe 723d 863e e225 b4be
00000200: 28db 81be 9b74 b6be a670 713e c636 b9be
00000210: 98ac 8d3e 65e3 013e c539 98be 20f8 473d
00000220: 3c8f 30be 1e83 12be 9157 353d 2449 69bc
00000230: e02a 92be b041 973d 6dd4 df3d 297c 2f3e
00000240: 040d 31be 938b 3f3d d399 3f3d 924c b8be
00000250: f4dd 873e a841 42be 372e 36be 84b9 4a3e
00000260: 56a8 90be a58b 8abe a16f 9cbe 085d 32be
00000270: 11d2 453e d068 3d3e ea2d cbbd d7e9 0a3e
00000280: a247 8e3c 4e9c 49be b18b 903e 63f8 193e
00000290: c5df c8bc c70e 06bd d711 57bc faca 6ebe
000002a0: cacc 42be c2d5 79bd a650 103e d437 913d
000002b0: 9ce6 6fbd 93a2 0dbe b255 2fbd b456 e03c
000002c0: 1fc6 0f3d 0c66 813d 744b a7bd 917a 953e
000002d0: b0d7 a8be 027e 9abd 3462 babd 73f5 2e3e
000002e0: 0cc1 5fbd f444 463e 6779 553e dfc0 56be
000002f0: b1bc 6f3d 8318 543e 46ee b0bb ec2b a03e
00000300: 6608 b83d 67fa b53d 1d89 4dbe a955 06bf
00000310: ab92 ad3d 2c86 f83c 5642 27be 1f5f 17be
00000320: 9f6f 13be 0aba ae3c b4e6 e1be 6707 5ebb
00000330: 8b94 9d3e 5e86 fdbe 4a00 0bbe 562e 893c
00000340: fb74 353e e5bb 963e 1776 533e dcd0 e3be
00000350: e446 2e3e f4f9 0c3e a3b1 c1be a1a0 66be
00000360: cfb2 62be fb5b 413e ac91 2b3e f713 51be
00000370: 003b 733e 6216 bfbc 3f99 303e 5e77 9bbe
00000380: eef3 36bd d250 183e 93d5 c93d 4177 5ebe
00000390: dc4c 62be 36c2 83be b7c2 e9be 849a 613d
000003a0: 0787 09be 09ce 5bbe 65fe b93d d686 3abe
000003b0: b7a7 9f3e e0ad 113c 9f28 9dbd 67f4 9dbe
000003c0: da25 e03d 19aa 4fbe b647 d83d 0dc6 5dbe
000003d0: a14e 263e 3f81 6bbe 866e c53d d7de 533d
000003e0: 9c7a 5cbe 594b e63b 3575 83bd 62ab 713e
000003f0: 11a7 a83d b05c 833e 5b92 3a3b 27df 28be
-0.15714236 0.13595714 -0.25882968 0.24093905 0.12415884 -0.06276808 0.18213962 0.008932491
-0.26095608 -0.015463385 0.2500823 -0.15080267 -0.103813656 -0.2880791 0.25842145 0.16853304
-0.0592215 -0.17020267 0.2443238 0.26443094 0.09995703 0.19611476 -0.2721064 -0.37124863
0.085650004 -0.2068109 -0.23133278 -0.29447874 0.24732478 -0.35652587 -0.04118763 -0.09456015
0.10472671 -0.018894654 -0.10439992 0.28563672 -0.04574396 0.091956645 0.3409072 0.05607052
-0.30346206 -0.0014526488 0.20576967 0.23299728 0.23874584 -0.11422941 -0.01764201 0.08328719
-0.12162165 0.2719489 0.099746495 -0.1120502 0.22729918 -0.22487853 0.11081366 0.22460312
-0.066824906 -0.010998439 -0.27764848 0.12995811 -0.06660595 -0.045419443 0.15042825 -0.15012994
-0.16818972 0.08287106 0.20696239 0.12124901 -0.083997436 0.3122932 -0.33786997 -0.09825362
0.03679764 0.21256217 0.20020087 -0.10443944 -0.24471758 -0.2802539 -7.192236e-05 -0.09392297
-0.0027431229 -0.116305694 -0.08465634 0.31142923 -0.027265832 -0.17087175 -0.22361892 0.09577318
0.41025802 0.23026453 0.026334584 0.15980671 -0.010006555 -0.22674996 0.10522992 -0.4323799
-0.013503381 0.18091974 -0.11910787 0.046116732 0.32076678 -0.28202215 -0.29863772 -0.31647256
-0.111521095 -0.34465596 0.31838375 -0.1635434 0.15148762 0.08046406 -0.20179191 0.10773879
-0.23870453 -0.22935547 0.17800668 -0.08325967 -0.36804393 0.23504652 -0.4062501 -0.4893837
-0.18817551 -0.27115062 0.30516553 0.23720944 0.13376087 -0.33254465 0.26218754 -0.35185152
-0.25362515 -0.35635838 0.23578128 -0.361746 0.2767074 0.126844 -0.29731575 0.048820615
-0.1724214 -0.1430783 0.044272963 -0.0142386295 -0.28548336 0.07385576 0.10929189 0.17137207
-0.17290121 0.046763968 0.046777558 -0.3599592 0.26536524 -0.18970358 -0.17791067 0.19797331
-0.2825343 -0.27059665 -0.30553916 -0.17418301 0.19318415 0.18497014 -0.09920867 0.13565765
0.017368142 -0.19688532 0.28231576 0.15036158 -0.024520764 -0.032728937 -0.013126812 -0.23319617
-0.19023433 -0.06099487 0.14093265 0.070907265 -0.058569536 -0.13831548 -0.042806335 0.027385093
0.035101052 0.06318292 -0.081686884 0.29195073 -0.32977057 -0.07543565 -0.09100762 0.17085819
-0.054627463 0.19362241 0.20847093 -0.20972012 0.05852956 0.20712475 -0.005399498 0.3128351
0.08985977 0.08885651 -0.20071836 -0.5247446 0.0847524 0.030337416 -0.16333899 -0.1478238
-0.14398049 0.021328945 -0.44121325 -0.0033878924 0.30777392 -0.49516577 -0.13574329 0.016745728
0.17720406 0.29440227 0.20650516 -0.44495285 0.1701923 0.13767225 -0.3783084 -0.22522213
-0.22138523 0.18882744 0.16754788 -0.20417772 0.23752975 -0.023326103 0.17245959 -0.30364507
-0.044666223 0.1487458 0.09855189 -0.2172518 -0.22099632 -0.2573411 -0.45656368 0.055079
-0.13430415 -0.21465315 0.09081725 -0.18215498 0.31182644 0.008891553 -0.076737635 -0.30850527
0.109447196 -0.20279731 0.10560553 -0.21657582 0.16240932 -0.22998522 0.09640221 0.05172619
-0.21531147 0.007028025 -0.0641884 0.23600534 0.082349904 0.25656652 0.0028468582 -0.16491376

sequential/dense_1/BiasAdd/ReadVariableOp f4 [10]
00000000: 1edc bc3b 8fde a9bb 08cb 2e3d dd56 9d3c
00000010: 6b34 31bd 5922 73bb bd7b 693b 835f a23c
00000020: 0012 79bc dbf0 15bd
0.0057635447 -0.0051840018 0.042674094 0.019206459 -0.04326288 -0.003709933 0.0035626732 0.019820934
-0.015202045 -0.03660665

sequential/dense/BiasAdd/ReadVariableOp f4 [64]
00000000: d9be a73b da4c 2e3b 0d27 ed3c a030 cdbc
00000010: 6067 ce3c c053 b3bb 63bd 46bb 56a3 c4bb
00000020: 90c3 d7bc d121 633c dc43 b03c 20d2 24bd
00000030: c51c a5bc cd24 0c3d 84d0 41bc cdb8 c4bb
00000040: 69d8 03bd 3870 103d 2fbe 0e3d a64a c23c
00000050: e031 513c 0eee d73c f351 c0bc 5f64 eb3b
00000060: cc7e bcbc f0a2 c4bb ca75 e2bc 8f44 bcba
00000070: 1866 ce3c e178 cc3b bb63 ea3c d5fa bfba
00000080: ad85 b63c 9db1 e9bb c969 853c 85b0 0f3d
00000090: f7b2 aa3c d6bb c4bb afa1 833c d833 a7bc
000000a0: a473 cdbc 6d75 76bb fcb0 2d3d 158a 433d
000000b0: ec9b de3c 5872 08bd 7507 64bc 49c3 7e3c
000000c0: 3d68 a5bc cb83 813c eaa5 a6bb 88ef 533c
000000d0: a7a3 6e3c c31e 93bc 55d9 c63b 68e5 503d
000000e0: 4175 4e3b 5c5d dcbb fd65 fb3c 53ac 9b3c
000000f0: a85d 023d 0527 453d 736e a9bb 4852 533d
0.0051191864 0.00265961 0.028949285 -0.0250476 0.025195777 -0.0054726303 -0.0030325286 -0.0060009165
-0.026338369 0.013863043 0.021516733 -0.040239453 -0.02015532 0.034214783 -0.011829499 -0.0060034753
-0.032188807 0.03526327 0.034849342 0.023717236 0.012768239 0.02635863 -0.023476576 0.007183596
-0.02300968 -0.006000869 -0.027644057 -0.0014363694 0.025195166 0.006239996 0.028612008 -0.0014646897
0.022280538 -0.007131769 0.016285794 0.03508045 0.02083729 -0.006003837 0.016068308 -0.020410463
-0.025079556 -0.0037606612 0.042405114 0.047739107 0.027173959 -0.03331217 -0.0139177935 0.015549489
-0.020191306 0.015809914 -0.0050856965 0.012935527 0.014565385 -0.017959004 0.0060683885 0.05100003
0.0031502994 -0.0067249965 0.03068828 0.019003069 0.0318276 0.048132915 -0.0051706373 0.05159214

sequential/conv2d/BiasAdd/ReadVariableOp f4 [16]
00000000: c7b7 463e 8b28 5b3b 9ada fabb 9e6b adbc
00000010: c7d9 7cbb c5a9 68ba cfeb ccba 2026 d13c
00000020: b9fa 10bb 52c9 0abb 1422 223d 74fa 6abb
00000030: 8328 893d 9668 41bc cd6e 913c f12c d43c
0.19406043 0.0033440914 -0.007655454 -0.02116948 -0.0038581954 -0.0008875395 -0.0015634241 0.025530875
-0.0022122099 -0.0021177125 0.03958328 -0.0035854848 0.0669718 -0.01180472 0.01775303 0.025900336

sequential/conv2d_1/BiasAdd/ReadVariableOp f4 [32]
00000000: 920c ee3d f9ab cf3d 997c 07bb 6c75 823d
00000010: 8124 473d 9a1a e43c dc44 12bc bb70 243d
00000020: 67e4 babc d542 d43b 7ad0 f43c 12ba 253d
00000030: d5a2 ae3d 4927 6a3c 1572 c43c 134f 7bb9
00000040: c2bb bc3d 34f8 1dbd 1c6a 203e a3ac 163d
00000050: 4c42 9d3d 0ea5 57bd 22e1 933b 1105 923d
00000060: 5e12 afbd b540 563d 550f 7e3c 9a7b 7b3d
00000070: b14e d73c 33a1 523d 4654 5c3d 91bf cd3d
0.11623491 0.10140223 -0.0020673631 0.06370053 0.048618797 0.027844716 -0.00892755 0.04014657
-0.022813989 0.0064776936 0.029884566 0.040460654 0.085271515 0.014291593 0.02398018 -0.00023966683
0.092154995 -0.038566783 0.15665478 0.036785733 0.07678661 -0.052647643 0.004512922 0.071298726
-0.08548425 0.052307803 0.015506585 0.061397173 0.02628264 0.051423263 0.053791307 0.10046304

sequential/conv2d/Conv2D f4 [16, 3, 3, 1]
00000000: 1708 1b3e e972 07be 087e 39be ebbb 3dbf
00000010: 7401 6bbf 077f 9dbd 362c ffbe 4ec3 1fbf
00000020: af4c 55bd b10b 3dbe 9787 113e aac8 4c3e
00000030: ebd8 a5bd 2336 233e 91c0 423e 6f1e 77be
00000040: 6cbc 1c3e 6a76 8ebb 012d 2cbe 5b0b 1cbd
00000050: d67f 75be e2f2 053e 2a9c 3b3e 3537 42be
00000060: 078b d63c 6550 ee3d bdf0 223e cf82 5b3d
00000070: f924 bc3d 3718 0ebe 398c 373e 7bd5 503d
00000080: cb91 c1bd f578 353e c734 303e 1be8 213c
00000090: e5f6 fbbd 8edd 4e3e 6668 9abd a946 63be
000000a0: fa5e 153d 7da2 473e 8b95 5abe 4a2f d13d
000000b0: f894 ba3d dad6 633e 7c73 16be 001f ccbd
000000c0: c64f 803e 0112 86be 7176 803d fe39 d4bd
000000d0: 7ec6 2cbe 31a0 733e 231f 163e 2788 58bd
000000e0: 99a6 50bd 92a4 7ebd 72c5 813e 754b 5cbe
000000f0: d231 433e 5e6f 223d 03b9 76be f39d 17bf
00000100: 5a05 08be 8f21 5a3e 65d4 aabe 16c9 253e
00000110: b372 e23c 4aa0 243e 86a5 653d 1489 18bd
00000120: 1078 1dbe 8161 8a3e 1451 c6bd e69b 95bc
00000130: cb0e 273e 0a56 38be 255e 063e ab88 423e
00000140: 1c4e 3cbe df1e a8bd a410 69be 2346 93be
00000150: b1d8 7c3e c55a 483e bfc6 77bd b3b1 2abe
00000160: f080 b03d 6042 9d3e 461b 083e 68b4 113e
00000170: d402 b13b 37ba 2ebe 49e6 01be 69c4 9e3e
00000180: 3eb1 0abf 6e07 03bf 7a73 07be 701f 99bd
00000190: f5af 063e ac6a aa3d 4307 8f3a fc09 553e
000001a0: 4a81 2cbe c2b4 62be 1e14 2d3e f545 4a3d
000001b0: 7c57 f83d 805f 27bd 22a0 913e 98e8 8fbe
000001c0: 4956 babe a11f 17bd 0ce4 81be 13b4 37bf
000001d0: 974e 4ebe ce0f 2d3e 6520 163d 7344 fb3d
000001e0: 801b 213e a092 e7ba cf6c 8bbc 41fa 3dbe
000001f0: fdd8 64bd beca b13c 21e1 81be 37ee 62be
00000200: 528c a33e b7be d53d 9e6a b5bd 3afb 843e
00000210: 4dc1 92bd cfef 023e 5437 003e dece 5d3d
00000220: 470f 4abe 09d9 2b3b 6b8b a0bd e2ee 71be
00000230: 8be2 03be 685f 323e 82d7 313e 5f24 713e
0.15139805 -0.13227428 -0.18114483 -0.74114865 -0.9179909 -0.07690244 -0.49838418 -0.62407386
-0.052075084 -0.18461491 0.1421188 0.19998422 -0.080980144 0.1593862 0.19018771 -0.24132703
0.15306252 -0.004347612 -0.16814043 -0.038096767 -0.23974547 0.13080934 0.1832129 -0.18966372
0.02618934 0.11636428 0.15912147 0.053591546 0.091867395 -0.13876425 0.17924584 0.05098484
-0.09451636 0.17721923 0.17207633 0.009881998 -0.12302951 0.20201704 -0.07539444 -0.22194923
0.03646753 0.19495578 -0.21346109 0.10214098 0.09110445 0.22249928 -0.14692491 -0.0996685
0.25060862 -0.2618561 0.06272591 -0.10362624 -0.16872594 0.23791577 0.14660315 -0.05286422
-0.05094013 -0.062168665 0.2534595 -0.2151316 0.19061974 0.03965699 -0.24094014 -0.59225386
-0.13283291 0.21301864 -0.3336517 0.1618999 0.027642583 0.1607677 0.05606606 -0.037240103
-0.15377831 0.27027515 -0.09683433 -0.018262815 0.16314237 -0.18001571 0.13121851 0.18997447
-0.18389171 -0.08209013 -0.22760254 -0.28764448 0.24692036 0.19565876 -0.060492273 -0.1666935
0.08618343 0.30714703 0.13291654 0.14228976 0.0054019485 -0.17063223 -0.12685503 0.31009224
-0.541767 -0.5118321 -0.13227645 -0.07476699 0.1315306 0.08321127 0.0010912198 0.2080459
-0.16846195 -0.22139266 0.16902205 0.049383122 0.12126061 -0.04086256 0.28442484 -0.28107142
-0.36393955 -0.036895398 -0.25369298 -0.71759146 -0.20147167 0.1690056 0.036651988 0.12268915
0.15733147 -0.0017667599 -0.017019657 -0.18552496 -0.055871 0.02170312 -0.25367072 -0.22161184
0.31942993 0.104367666 -0.08858226 0.2597292 -0.071657754 0.12786792 0.12521106 0.054152362
-0.1973239 0.0026221892 -0.07839092 -0.23626283 -0.12879388 0.17419207 0.17367366 0.2354903

sequential/conv2d_1/Conv2D i1 [32, 3, 3, 16]
00000000: 04f4 f101 e5d7 eb11 f312 fd16 201f 17f8
00000010: 00f1 feed 96bf e8ff e0f8 1c06 0ee4 f808
00000020: 32db 11f1 8193 d6e9 e1e7 08f4 3015 f50f
00000030: d524 23f3 07fb e7f8 f020 0105 e203 2131
00000040: cae6 1928 bce3 f0f5 1e31 beee ebf7 e706
00000050: 4eed 0cfa 9499 e5f2 daff 03f5 2b08 0109
00000060: e31b 0009 12fe fc3b 160c e4fb 17fa 1e10
00000070: ae17 2529 c5f3 f2e3 fb10 e813 ee22 06f7
00000080: 25f1 11ff a7c6 d7d2 fc21 2eff 69ed e9f4
00000090: 5505 4b12 0935 eb3f 095f bae4 e3d9 d10b
000000a0: 3b00 0b0b e9b2 cb63 fef3 acfa e9d7 1603
000000b0: f021 051f ee39 f7da 1cfb 0202 17ed e8d5
000000c0: 43d9 e0d4 1fdd b526 c4e2 fe17 02f9 d0f0
000000d0: fb22 1f21 caee f5cd 1604 f225 b6e8 ebdc
000000e0: 04fd f010 0e4d f4e1 f2d1 031b d11b 041b
000000f0: 270d d8d5 13f0 942e d121 f3ff c509 0b14
4 -12 -15 1 -27 -41 -21 17
-13 18 -3 22 32 31 23 -8
0 -15 -2 -19 -106 -65 -24 -1
-32 -8 28 6 14 -28 -8 8
50 -37 17 -15 -127 -109 -42 -23
-31 -25 8 -12 48 21 -11 15
-43 36 35 -13 7 -5 -25 -8
-16 32 1 5 -30 3 33 49
-54 -26 25 40 -68 -29 -16 -11
30 49 -66 -18 -21 -9 -25 6
78 -19 12 -6 -108 -103 -27 -14
-38 -1 3 -11 43 8 1 9
-29 27 0 9 18 -2 -4 59
22 12 -28 -5 23 -6 30 16
-82 23 37 41 -59 -13 -14 -29
-5 16 -24 19 -18 34 6 -9
37 -15 17 -1 -89 -58 -41 -46
-4 33 46 -1 105 -19 -23 -12
85 5 75 18 9 53 -21 63
9 95 -70 -28 -29 -39 -47 11
59 0 11 11 -23 -78 -53 99
-2 -13 -84 -6 -23 -41 22 3
-16 33 5 31 -18 57 -9 -38
28 -5 2 2 23 -19 -24 -43
67 -39 -32 -44 31 -35 -75 38
-60 -30 -2 23 2 -7 -48 -16
-5 34 31 33 -54 -18 -11 -51
22 4 -14 37 -74 -24 -21 -36
4 -3 -16 16 14 77 -12 -31
-14 -47 3 27 -47 27 4 27
39 13 -40 -43 19 -16 -108 46
-47 33 -13 -1 -59 9 11 20

sequential/dense/MatMul i1 [64, 3872] scale=0.0032940528 zero_point=0
00000000: 18d8 00d1 03ff f609 e1ff f4f1 06f6 ea10
00000010: eff3 e8e0 ea0c ffef 0805 0cec 15ff f7ee
00000020: 0ced e1fc eef3 23db e4ef eaf2 eafc e5f3
00000030: e2eb f4f2 fee6 0d02 e3ec 1503 1e20 edef
00000040: 1fe7 ebed 02fa 21db f601 00e8 f325 d1f0
00000050: e9f5 f7fb dcd1 e9e4 04d0 19f6 02e0 faeb
00000060: f2ea e8ee 1cfe f8ff 1bea 2ef0 ed19 17f2
00000070: f4f7 e704 f8d2 00fb ff00 ecf8 2108 01f6
00000080: 0115 1bf8 04fa e229 1fd0 24ef ec00 2007
00000090: ff1b f60a 12ec 0d17 e0dd fcec 20d9 dcf0
000000a0: 00fa 0feb 1be3 093c 0fee 0cec da14 4316
000000b0: f841 00e0 19e6 ec1a e90d dce7 46bf e3f4
000000c0: 1fed 01e6 0fe8 1b11 02d7 0bf3 d9fe 2ef9
000000d0: ec04 fce7 28e4 2721 0bf4 e0f4 08e7 fdf8
000000e0: 28eb f9ec 12ee 16de e1e5 dbe4 ea16 ffd4
000000f0: f2e0 e3f3 f2ff 2327 07f0 dce3 f9ed fc0c
0.07905727 -0.13176212 0.0 -0.15482049 0.009882159 -0.0032940528 -0.03294053 0.029646475
-0.10211564 -0.0032940528 -0.039528634 -0.04941079 0.019764317 -0.03294053 -0.07246916 0.052704845
-0.0559989 -0.042822685 -0.07905727 -0.10540969 -0.07246916 0.039528634 -0.0032940528 -0.0559989
0.026352422 0.016470265 0.039528634 -0.06588106 0.06917511 -0.0032940528 -0.029646475 -0.05929295
0.039528634 -0.062587 -0.10211564 -0.013176211 -0.05929295 -0.042822685 0.11529185 -0.12187995
-0.09223348 -0.0559989 -0.07246916 -0.04611674 -0.07246916 -0.013176211 -0.08893943 -0.042822685
-0.09882158 -0.06917511 -0.039528634 -0.04611674 -0.0065881056 -0.08564537 0.042822685 0.0065881056
-0.09552753 -0.06588106 0.06917511 0.009882159 0.09882158 0.10540969 -0.062587 -0.0559989
0.10211564 -0.08235132 -0.06917511 -0.062587 0.0065881056 -0.019764317 0.10870374 -0.12187995
-0.03294053 0.0032940528 0.0 -0.07905727 -0.042822685 0.12187995 -0.15482049 -0.052704845
-0.07576321 -0.03623458 -0.029646475 -0.016470265 -0.1185859 -0.15482049 -0.07576321 -0.09223348
0.013176211 -0.15811454 0.08235132 -0.03294053 0.0065881056 -0.10540969 -0.019764317 -0.06917511
-0.04611674 -0.07246916 -0.07905727 -0.05929295 0.09223348 -0.0065881056 -0.026352422 -0.0032940528
0.08893943 -0.07246916 0.15152642 -0.052704845 -0.062587 0.08235132 0.07576321 -0.04611674
-0.039528634 -0.029646475 -0.08235132 0.013176211 -0.026352422 -0.15152642 0.0 -0.016470265
-0.0032940528 0.0 -0.06588106 -0.026352422 0.10870374 0.026352422 0.0032940528 -0.03294053
0.0032940528 0.06917511 0.08893943 -0.026352422 0.013176211 -0.019764317 -0.09882158 0.13505617
0.10211564 -0.15811454 0.1185859 -0.0559989 -0.06588106 0.0 0.10540969 0.02305837
-0.0032940528 0.08893943 -0.03294053 0.03294053 0.05929295 -0.06588106 0.042822685 0.07576321
-0.10540969 -0.11529185 -0.013176211 -0.06588106 0.10540969 -0.12846805 -0.1185859 -0.052704845
0.0 -0.019764317 0.04941079 -0.06917511 0.08893943 -0.09552753 0.029646475 0.19764316
0.04941079 -0.05929295 0.039528634 -0.06588106 -0.125174 0.06588106 0.22070153 0.07246916
-0.026352422 0.21411343 0.0 -0.10540969 0.08235132 -0.08564537 -0.06588106 0.08564537
-0.07576321 0.042822685 -0.1185859 -0.08235132 0.2305837 -0.21411343 -0.09552753 -0.039528634
0.10211564 -0.062587 0.0032940528 -0.08564537 0.04941079 -0.07905727 0.08893943 0.0559989
0.0065881056 -0.13505617 0.03623458 -0.042822685 -0.12846805 -0.0065881056 0.15152642 -0.02305837
-0.06588106 0.013176211 -0.013176211 -0.08235132 0.13176212 -0.09223348 0.12846805 0.10870374
0.03623458 -0.039528634 -0.10540969 -0.039528634 0.026352422 -0.08235132 -0.009882159 -0.026352422
0.13176212 -0.06917511 -0.02305837 -0.06588106 0.05929295 -0.05929295 0.07246916 -0.1119978
-0.10211564 -0.08893943 -0.12187995 -0.09223348 -0.07246916 0.07246916 -0.0032940528 -0.14493832
-0.04611674 -0.10540969 -0.09552753 -0.042822685 -0.04611674 -0.0032940528 0.11529185 0.12846805
0.02305837 -0.052704845 -0.1185859 -0.09552753 -0.02305837 -0.062587 -0.013176211 0.039528634
